models/wasabi/wasabi.tflite (tflite, 60944 bytes, 18 tensors)

tfl.pseudo_qconst1 i1 [1, 1088] scale=0.0017119336 zero_point=0
0	0xc4	-0.10271602
1	0xe7	-0.04279834
2	0xe5	-0.04622221
3	0xf1	-0.025679005
4	0xeb	-0.035950605
5	0xc6	-0.09929215
6	0xc1	-0.10785182
7	0xf7	-0.015407403
8	0xd3	-0.077037014
9	0xe7	-0.04279834
10	0xbc	-0.116411485
11	0x04	0.0068477346
12	0xfe	-0.0034238673
13	0x30	0.08217281
14	0xf7	-0.015407403
15	0xb3	-0.13181889
16	0x07	0.011983535
17	0x06	0.010271601
18	0x1f	0.05306994
19	0x18	0.041086406
20	0xef	-0.029102871
21	0xd4	-0.07532508
22	0xa7	-0.1523621
23	0xd0	-0.08217281
24	0xe1	-0.05306994
25	0xc0	-0.10956375
26	0xc5	-0.10100409
27	0x19	0.04279834
28	0xce	-0.08559668
29	0xfa	-0.010271601
30	0xcf	-0.083884746
31	0xef	-0.029102871
32	0xc2	-0.10613988
33	0xcf	-0.083884746
34	0xf9	-0.011983535
35	0xc0	-0.10956375
36	0x97	-0.17975304
37	0xeb	-0.035950605
38	0x9a	-0.17461723
39	0xe2	-0.05135801
40	0xad	-0.1420905
41	0xc5	-0.10100409
42	0xe8	-0.041086406
43	0xea	-0.03766254
44	0xe2	-0.05135801
45	0xf0	-0.027390938
46	0xb6	-0.12668309
47	0xcf	-0.083884746
48	0xa2	-0.16092177
49	0xc8	-0.09586828
50	0xca	-0.09244442
51	0x21	0.05649381
52	0xc5	-0.10100409
53	0xaf	-0.13866663
54	0xe2	-0.05135801
55	0x9a	-0.17461723
56	0xf5	-0.01883127
57	0x38	0.09586828
58	0xb7	-0.12497116
59	0x1e	0.05135801
60	0xdd	-0.059917677
61	0xd3	-0.077037014
62	0xce	-0.08559668
63	0xac	-0.14380242
64	0x06	0.010271601
65	0xed	-0.03252674
66	0x1f	0.05306994
67	0xf8	-0.013695469
68	0x00	0.0
69	0xd6	-0.07190121
70	0xe4	-0.04793414
71	0xf0	-0.027390938
72	0xdb	-0.06334154
73	0xda	-0.06505348
74	0xaa	-0.14722629
75	0x10	0.027390938
76	0x02	0.0034238673
77	0xfb	-0.008559668
78	0xe5	-0.04622221
79	0xa9	-0.14893822
80	0xe5	-0.04622221
81	0xce	-0.08559668
82	0xfa	-0.010271601
83	0xe5	-0.04622221
84	0xe6	-0.044510275
85	0xce	-0.08559668
86	0xd5	-0.073613144
87	0xdc	-0.061629612
88	0x00	0.0
89	0xf5	-0.01883127
90	0xd7	-0.07018928
91	0x02	0.0034238673
92	0xf1	-0.025679005
93	0xda	-0.06505348
94	0x17	0.039374474
95	0x08	0.013695469
96	0xda	-0.06505348
97	0xf3	-0.022255138
98	0xf5	-0.01883127
99	0xe1	-0.05306994
100	0x1a	0.044510275
101	0xbe	-0.11298762
102	0xad	-0.1420905
103	0xcc	-0.08902055
104	0xc2	-0.10613988
105	0xee	-0.030814806
106	0xd8	-0.06847735
107	0xd2	-0.07874895
108	0xe8	-0.041086406
109	0x05	0.008559668
110	0xdc	-0.061629612
111	0xca	-0.09244442
112	0xc4	-0.10271602
113	0xb5	-0.12839502
114	0xea	-0.03766254
115	0xe1	-0.05306994
116	0xe9	-0.039374474
117	0xb6	-0.12668309
118	0xf1	-0.025679005
119	0xe4	-0.04793414
120	0x08	0.013695469
121	0xfb	-0.008559668
122	0xe9	-0.039374474
123	0xc5	-0.10100409
124	0xdf	-0.05649381
125	0x95	-0.1831769
126	0xd3	-0.077037014
127	0xd3	-0.077037014
128	0xb2	-0.13353083
129	0xdc	-0.061629612
130	0x34	0.08902055
131	0x2c	0.07532508
132	0xe5	-0.04622221
133	0xab	-0.14551435
134	0xdb	-0.06334154
135	0xea	-0.03766254
136	0xa1	-0.1626337
137	0xce	-0.08559668
138	0x0a	0.017119337
139	0xcb	-0.090732485
140	0xd0	-0.08217281
141	0xf4	-0.020543203
142	0x0a	0.017119337
143	0xeb	-0.035950605
144	0x1f	0.05306994
145	0xe6	-0.044510275
146	0x18	0.041086406
147	0x01	0.0017119336
148	0x14	0.034238674
149	0xca	-0.09244442
150	0x05	0.008559668
151	0xf8	-0.013695469
152	0xbc	-0.116411485
153	0xd4	-0.07532508
154	0xe5	-0.04622221
155	0xe3	-0.049646076
156	0xeb	-0.035950605
157	0xf2	-0.02396707
158	0xdb	-0.06334154
159	0x0d	0.022255138
160	0x01	0.0017119336
161	0xea	-0.03766254
162	0xe5	-0.04622221
163	0xe9	-0.039374474
164	0xfc	-0.0068477346
165	0xc5	-0.10100409
166	0xc5	-0.10100409
167	0x9b	-0.1729053
168	0xc4	-0.10271602
169	0xb3	-0.13181889
170	0x0b	0.01883127
171	0xc3	-0.10442795
172	0xe4	-0.04793414
173	0xd0	-0.08217281
174	0xb1	-0.13524276
175	0x07	0.011983535
176	0xd0	-0.08217281
177	0xd6	-0.07190121
178	0xd2	-0.07874895
179	0xf8	-0.013695469
180	0xe1	-0.05306994
181	0xea	-0.03766254
182	0xd1	-0.08046088
183	0xd3	-0.077037014
184	0xf4	-0.020543203
185	0xfe	-0.0034238673
186	0x01	0.0017119336
187	0xd9	-0.06676541
188	0xbb	-0.11812342
189	0xc2	-0.10613988
190	0x00	0.0
191	0xc7	-0.09758022
192	0xc6	-0.09929215
193	0xd3	-0.077037014
194	0x36	0.09244442
195	0x17	0.039374474
196	0x11	0.029102871
197	0xd5	-0.073613144
198	0x1d	0.049646076
199	0xc5	-0.10100409
200	0xb8	-0.123259224
201	0xca	-0.09244442
202	0xe4	-0.04793414
203	0x10	0.027390938
204	0xcf	-0.083884746
205	0xea	-0.03766254
206	0xe9	-0.039374474
207	0xeb	-0.035950605
208	0x11	0.029102871
209	0xd6	-0.07190121
210	0x21	0.05649381
211	0x20	0.054781877
212	0xfe	-0.0034238673
213	0xd7	-0.07018928
214	0x20	0.054781877
215	0x26	0.06505348
216	0xd0	-0.08217281
217	0xa1	-0.1626337
218	0xfb	-0.008559668
219	0xdc	-0.061629612
220	0xef	-0.029102871
221	0xea	-0.03766254
222	0x1d	0.049646076
223	0x13	0.03252674
224	0x15	0.035950605
225	0xec	-0.034238674
226	0xe6	-0.044510275
227	0xf3	-0.022255138
228	0x32	0.08559668
229	0xc6	-0.09929215
230	0xbd	-0.11469956
231	0xc7	-0.09758022
232	0xef	-0.029102871
233	0x01	0.0017119336
234	0x02	0.0034238673
235	0x05	0.008559668
236	0xf7	-0.015407403
237	0xf5	-0.01883127
238	0xed	-0.03252674
239	0xf5	-0.01883127
240	0x05	0.008559668
241	0xb6	-0.12668309
242	0xc0	-0.10956375
243	0x07	0.011983535
244	0xcd	-0.087308615
245	0xc2	-0.10613988
246	0xd1	-0.08046088
247	0xb7	-0.12497116
248	0x06	0.010271601
249	0x02	0.0034238673
250	0xeb	-0.035950605
251	0xcc	-0.08902055
252	0xd2	-0.07874895
253	0x9e	-0.16776949
254	0xfc	-0.0068477346
255	0xc7	-0.09758022

tfl.pseudo_qconst3 i1 [64, 1, 1, 64]
0	0xd0	-48
1	0x47	71
2	0x3c	60
3	0xf2	-14
4	0x1e	30
5	0x3e	62
6	0xc9	-55
7	0x2b	43
8	0x72	114
9	0xf8	-8
10	0x39	57
11	0x10	16
12	0x3d	61
13	0x39	57
14	0x3d	61
15	0xde	-34
16	0x0a	10
17	0x28	40
18	0x56	86
19	0xf5	-11
20	0xc6	-58
21	0x9c	-100
22	0xea	-22
23	0x1b	27
24	0xe7	-25
25	0x1e	30
26	0x5a	90
27	0xe4	-28
28	0xa7	-89
29	0xfd	-3
30	0xcb	-53
31	0x1d	29
32	0xcf	-49
33	0xdd	-35
34	0xd9	-39
35	0x78	120
36	0xf8	-8
37	0x0a	10
38	0x10	16
39	0xdb	-37
40	0x02	2
41	0x66	102
42	0xbc	-68
43	0xd8	-40
44	0x1a	26
45	0xe2	-30
46	0xdc	-36
47	0xee	-18
48	0xce	-50
49	0x68	104
50	0x70	112
51	0x0e	14
52	0x2f	47
53	0x06	6
54	0xae	-82
55	0xf0	-16
56	0x0e	14
57	0xfb	-5
58	0x01	1
59	0xfa	-6
60	0x16	22
61	0xb3	-77
62	0x81	-127
63	0xe6	-26
64	0x2f	47
65	0x11	17
66	0xaf	-81
67	0xe5	-27
68	0x0d	13
69	0x19	25
70	0x51	81
71	0x28	40
72	0xd6	-42
73	0x81	-127
74	0x17	23
75	0x1b	27
76	0x0c	12
77	0xc4	-60
78	0x06	6
79	0x06	6
80	0xf0	-16
81	0xf3	-13
82	0x32	50
83	0x1c	28
84	0x12	18
85	0x29	41
86	0x6f	111
87	0xe6	-26
88	0x40	64
89	0x33	51
90	0xdb	-37
91	0xf5	-11
92	0x10	16
93	0xe1	-31
94	0xc5	-59
95	0x22	34
96	0xc8	-56
97	0xef	-17
98	0x30	48
99	0x2a	42
100	0xf8	-8
101	0xb3	-77
102	0x17	23
103	0xcb	-53
104	0xc3	-61
105	0xc3	-61
106	0x03	3
107	0x15	21
108	0xfc	-4
109	0x37	55
110	0xc5	-59
111	0x33	51
112	0xaf	-81
113	0x1b	27
114	0x04	4
115	0x4e	78
116	0x0e	14
117	0xa0	-96
118	0x3f	63
119	0xf9	-7
120	0x3b	59
121	0x30	48
122	0xf8	-8
123	0xd5	-43
124	0xe4	-28
125	0xfc	-4
126	0x16	22
127	0xbc	-68
128	0x29	41
129	0xd1	-47
130	0xee	-18
131	0x00	0
132	0xca	-54
133	0xf2	-14
134	0x02	2
135	0x1c	28
136	0x35	53
137	0x24	36
138	0xe3	-29
139	0xba	-70
140	0xa7	-89
141	0xd8	-40
142	0x1d	29
143	0x3a	58
144	0x29	41
145	0xd4	-44
146	0x7f	127
147	0x15	21
148	0xf6	-10
149	0xb4	-76
150	0x0e	14
151	0x4c	76
152	0xd9	-39
153	0xe9	-23
154	0xdc	-36
155	0xf4	-12
156	0x13	19
157	0xc4	-60
158	0x4b	75
159	0x5e	94
160	0xf9	-7
161	0x4f	79
162	0x19	25
163	0xcc	-52
164	0xd9	-39
165	0xf7	-9
166	0xee	-18
167	0xc7	-57
168	0xdb	-37
169	0xd8	-40
170	0xee	-18
171	0x4f	79
172	0x48	72
173	0x17	23
174	0xde	-34
175	0xe4	-28
176	0xe9	-23
177	0x4c	76
178	0xd9	-39
179	0xf1	-15
180	0x0a	10
181	0xd4	-44
182	0xc1	-63
183	0x38	56
184	0xc2	-62
185	0xff	-1
186	0xc1	-63
187	0x35	53
188	0x26	38
189	0x2a	42
190	0x46	70
191	0xdf	-33
192	0x3d	61
193	0xeb	-21
194	0x76	118
195	0xcf	-49
196	0xea	-22
197	0x13	19
198	0x5d	93
199	0x32	50
200	0x48	72
201	0x09	9
202	0xdb	-37
203	0xc8	-56
204	0xc1	-63
205	0xcb	-53
206	0x03	3
207	0xb7	-73
208	0xb5	-75
209	0x49	73
210	0xda	-38
211	0x0f	15
212	0xd3	-45
213	0x57	87
214	0x18	24
215	0x40	64
216	0x28	40
217	0xc4	-60
218	0x81	-127
219	0xc8	-56
220	0x11	17
221	0x0e	14
222	0xf6	-10
223	0x06	6
224	0x42	66
225	0x08	8
226	0x0d	13
227	0xed	-19
228	0xb3	-77
229	0xc8	-56
230	0x41	65
231	0xe7	-25
232	0xd3	-45
233	0xd1	-47
234	0xe7	-25
235	0x06	6
236	0x2c	44
237	0xdd	-35
238	0x35	53
239	0xfd	-3
240	0xdb	-37
241	0xf6	-10
242	0x25	37
243	0xa2	-94
244	0x35	53
245	0x1d	29
246	0xa2	-94
247	0xe8	-24
248	0x03	3
249	0x4b	75
250	0x2a	42
251	0x3d	61
252	0x02	2
253	0x58	88
254	0x4c	76
255	0x49	73

tfl.pseudo_qconst5 i1 [1, 23, 1, 64]
0	0xfb	-5
1	0xfe	-2
2	0xd4	-44
3	0x13	19
4	0x81	-127
5	0x14	20
6	0x3a	58
7	0xd2	-46
8	0x51	81
9	0xfc	-4
10	0xe4	-28
11	0xd3	-45
12	0x0d	13
13	0x18	24
14	0x05	5
15	0x2a	42
16	0x1b	27
17	0x29	41
18	0x32	50
19	0x24	36
20	0x97	-105
21	0x18	24
22	0x50	80
23	0xc7	-57
24	0xaa	-86
25	0x81	-127
26	0xf0	-16
27	0xc9	-55
28	0x28	40
29	0x89	-119
30	0x35	53
31	0x5d	93
32	0x4a	74
33	0x81	-127
34	0xed	-19
35	0x7f	127
36	0x24	36
37	0x6a	106
38	0xbe	-66
39	0x2a	42
40	0x17	23
41	0x0a	10
42	0x5b	91
43	0x7f	127
44	0xb1	-79
45	0xe2	-30
46	0xc2	-62
47	0xc7	-57
48	0x14	20
49	0x81	-127
50	0x15	21
51	0x29	41
52	0x7f	127
53	0x65	101
54	0xc2	-62
55	0xae	-82
56	0xff	-1
57	0xa1	-95
58	0x1e	30
59	0x19	25
60	0xbb	-69
61	0x15	21
62	0xaa	-86
63	0xda	-38
64	0xa7	-89
65	0x05	5
66	0x8b	-117
67	0x08	8
68	0xa5	-91
69	0xdb	-37
70	0x30	48
71	0x9d	-99
72	0x18	24
73	0xf0	-16
74	0x7f	127
75	0x01	1
76	0xd0	-48
77	0x51	81
78	0x30	48
79	0x1e	30
80	0x20	32
81	0xdc	-36
82	0x3e	62
83	0x35	53
84	0xc4	-60
85	0x26	38
86	0x7f	127
87	0x96	-106
88	0x81	-127
89	0x9c	-100
90	0xe2	-30
91	0x81	-127
92	0x23	35
93	0xce	-50
94	0x7f	127
95	0x7f	127
96	0x58	88
97	0xd7	-41
98	0x8e	-114
99	0x5f	95
100	0x54	84
101	0x59	89
102	0xf0	-16
103	0x2d	45
104	0xba	-70
105	0x08	8
106	0x5d	93
107	0x79	121
108	0x1e	30
109	0xfd	-3
110	0xf8	-8
111	0xd3	-45
112	0xd9	-39
113	0x97	-105
114	0xdd	-35
115	0x76	118
116	0x3d	61
117	0x7f	127
118	0x18	24
119	0x1f	31
120	0xe2	-30
121	0x04	4
122	0x03	3
123	0x37	55
124	0xcb	-53
125	0x15	21
126	0xb5	-75
127	0x2b	43
128	0xac	-84
129	0x0a	10
130	0x9c	-100
131	0x2c	44
132	0xcf	-49
133	0x12	18
134	0xb1	-79
135	0xfe	-2
136	0xc8	-56
137	0x22	34
138	0x14	20
139	0xf7	-9
140	0x12	18
141	0xea	-22
142	0x2f	47
143	0xf0	-16
144	0x97	-105
145	0xef	-17
146	0x52	82
147	0xe1	-31
148	0xc1	-63
149	0xe3	-29
150	0x3e	62
151	0xe6	-26
152	0x9d	-99
153	0xc8	-56
154	0xad	-83
155	0xb3	-77
156	0x07	7
157	0xaa	-86
158	0x42	66
159	0x61	97
160	0x33	51
161	0xa2	-94
162	0xc0	-64
163	0x63	99
164	0x7f	127
165	0x5d	93
166	0x23	35
167	0xda	-38
168	0xaa	-86
169	0xfd	-3
170	0x23	35
171	0xf1	-15
172	0x19	25
173	0xee	-18
174	0xec	-20
175	0xe4	-28
176	0x25	37
177	0x99	-103
178	0xce	-50
179	0x4d	77
180	0x50	80
181	0x4c	76
182	0x11	17
183	0x81	-127
184	0x25	37
185	0xdf	-33
186	0xe3	-29
187	0xef	-17
188	0x7f	127
189	0x39	57
190	0xe9	-23
191	0xf3	-13
192	0x13	19
193	0xe2	-30
194	0x93	-109
195	0xea	-22
196	0xd9	-39
197	0xf6	-10
198	0xf3	-13
199	0xf0	-16
200	0xc3	-61
201	0x06	6
202	0xd3	-45
203	0x00	0
204	0x0f	15
205	0x1c	28
206	0xd6	-42
207	0xa1	-95
208	0x81	-127
209	0xd9	-39
210	0x54	84
211	0x4e	78
212	0xb6	-74
213	0x3f	63
214	0x31	49
215	0xd5	-43
216	0xf0	-16
217	0xf5	-11
218	0xcd	-51
219	0xd8	-40
220	0x34	52
221	0xf5	-11
222	0xff	-1
223	0xca	-54
224	0x4c	76
225	0xe7	-25
226	0x1e	30
227	0x0b	11
228	0x70	112
229	0x43	67
230	0xf8	-8
231	0xf9	-7
232	0xd7	-41
233	0x2b	43
234	0xe1	-31
235	0xbc	-68
236	0xfd	-3
237	0x26	38
238	0x12	18
239	0xe1	-31
240	0x93	-109
241	0xcb	-53
242	0xc6	-58
243	0xf0	-16
244	0x66	102
245	0x6a	106
246	0xef	-17
247	0x25	37
248	0x3c	60
249	0x28	40
250	0xf2	-14
251	0x96	-106
252	0x7c	124
253	0x1f	31
254	0xe3	-29
255	0x03	3

tfl.pseudo_qconst7 i1 [64, 1, 1, 64]
0	0xb3	-77
1	0x0a	10
2	0xf6	-10
3	0xe4	-28
4	0x03	3
5	0xe1	-31
6	0x0f	15
7	0xcc	-52
8	0x48	72
9	0xd4	-44
10	0x3b	59
11	0x11	17
12	0x07	7
13	0xd6	-42
14	0x2b	43
15	0x24	36
16	0xe0	-32
17	0x08	8
18	0x45	69
19	0x26	38
20	0xf8	-8
21	0xc8	-56
22	0xef	-17
23	0x17	23
24	0xfe	-2
25	0xc5	-59
26	0xfc	-4
27	0x2d	45
28	0xc4	-60
29	0xab	-85
30	0xef	-17
31	0xc0	-64
32	0x09	9
33	0xd2	-46
34	0xf0	-16
35	0xfd	-3
36	0xcc	-52
37	0xd5	-43
38	0x2b	43
39	0xcd	-51
40	0xfe	-2
41	0xf1	-15
42	0x1a	26
43	0xce	-50
44	0xd0	-48
45	0x19	25
46	0xc5	-59
47	0x0d	13
48	0x15	21
49	0x01	1
50	0x1a	26
51	0xb9	-71
52	0x1b	27
53	0xd4	-44
54	0x27	39
55	0xbe	-66
56	0x3d	61
57	0x14	20
58	0xdd	-35
59	0x34	52
60	0x16	22
61	0x37	55
62	0x81	-127
63	0xba	-70
64	0xe3	-29
65	0xc7	-57
66	0xf1	-15
67	0xee	-18
68	0x43	67
69	0x05	5
70	0x17	23
71	0xd1	-47
72	0x51	81
73	0xf6	-10
74	0x1e	30
75	0xed	-19
76	0x0b	11
77	0x28	40
78	0xf9	-7
79	0x0b	11
80	0xc4	-60
81	0x0e	14
82	0xbb	-69
83	0xf0	-16
84	0x26	38
85	0x44	68
86	0x90	-112
87	0xc7	-57
88	0x39	57
89	0x42	66
90	0x81	-127
91	0xc4	-60
92	0xab	-85
93	0xe8	-24
94	0xee	-18
95	0x58	88
96	0xe7	-25
97	0x6e	110
98	0x06	6
99	0xf5	-11
100	0x41	65
101	0x31	49
102	0x50	80
103	0x63	99
104	0x3c	60
105	0xee	-18
106	0x13	19
107	0x46	70
108	0xd4	-44
109	0xca	-54
110	0x14	20
111	0x41	65
112	0x0b	11
113	0xf0	-16
114	0xdc	-36
115	0x4e	78
116	0x46	70
117	0xd2	-46
118	0xee	-18
119	0xea	-22
120	0x25	37
121	0xd2	-46
122	0x3f	63
123	0xb3	-77
124	0xe8	-24
125	0xa2	-94
126	0x45	69
127	0xdb	-37
128	0x16	22
129	0xb0	-80
130	0x18	24
131	0x11	17
132	0x21	33
133	0x03	3
134	0xe4	-28
135	0xfb	-5
136	0x1b	27
137	0xcc	-52
138	0x4b	75
139	0x3b	59
140	0xcb	-53
141	0x94	-108
142	0x43	67
143	0x0b	11
144	0x35	53
145	0x44	68
146	0xcc	-52
147	0xfe	-2
148	0x29	41
149	0x02	2
150	0xf4	-12
151	0x01	1
152	0x2d	45
153	0x54	84
154	0x1e	30
155	0x7f	127
156	0xad	-83
157	0x11	17
158	0x33	51
159	0x5e	94
160	0x1a	26
161	0xdb	-37
162	0xd7	-41
163	0x2c	44
164	0xd0	-48
165	0x10	16
166	0x1e	30
167	0xe4	-28
168	0x43	67
169	0xfa	-6
170	0x93	-109
171	0x08	8
172	0x67	103
173	0x37	55
174	0x16	22
175	0xee	-18
176	0xaa	-86
177	0xdc	-36
178	0xee	-18
179	0x43	67
180	0x9f	-97
181	0x4f	79
182	0x19	25
183	0x48	72
184	0x4b	75
185	0xc6	-58
186	0x15	21
187	0x18	24
188	0x34	52
189	0xd7	-41
190	0x1e	30
191	0xf3	-13
192	0xe3	-29
193	0x00	0
194	0x2f	47
195	0x0b	11
196	0x36	54
197	0xc7	-57
198	0x4c	76
199	0xc6	-58
200	0xfc	-4
201	0xd8	-40
202	0x92	-110
203	0x59	89
204	0xcb	-53
205	0x1f	31
206	0x09	9
207	0x2b	43
208	0xd4	-44
209	0xe7	-25
210	0xe1	-31
211	0xf2	-14
212	0x81	-127
213	0x52	82
214	0x54	84
215	0x44	68
216	0x09	9
217	0x0f	15
218	0x43	67
219	0x39	57
220	0xc2	-62
221	0x4f	79
222	0x1b	27
223	0xef	-17
224	0xfb	-5
225	0x1d	29
226	0x28	40
227	0xe6	-26
228	0x0e	14
229	0x00	0
230	0x07	7
231	0xfc	-4
232	0xa5	-91
233	0x2a	42
234	0xd1	-47
235	0x67	103
236	0x20	32
237	0x20	32
238	0x40	64
239	0xe6	-26
240	0x3e	62
241	0x31	49
242	0x21	33
243	0xdb	-37
244	0xd0	-48
245	0x45	69
246	0x50	80
247	0x47	71
248	0x57	87
249	0xdf	-33
250	0x45	69
251	0xc4	-60
252	0x65	101
253	0xcb	-53
254	0x85	-123
255	0xe9	-23

tfl.pseudo_qconst9 i1 [1, 15, 1, 32]
0	0x0f	15
1	0xbf	-65
2	0xfd	-3
3	0x36	54
4	0x2a	42
5	0x1d	29
6	0x81	-127
7	0xb4	-76
8	0x1d	29
9	0xe0	-32
10	0x09	9
11	0x81	-127
12	0x7f	127
13	0xe5	-27
14	0x13	19
15	0xba	-70
16	0x24	36
17	0xa6	-90
18	0x9a	-102
19	0x81	-127
20	0x23	35
21	0xd4	-44
22	0x10	16
23	0x7f	127
24	0x1e	30
25	0x31	49
26	0xfa	-6
27	0x11	17
28	0x65	101
29	0x7f	127
30	0x56	86
31	0xba	-70
32	0xbd	-67
33	0x01	1
34	0xc6	-58
35	0x4e	78
36	0x58	88
37	0xc4	-60
38	0xe4	-28
39	0xa8	-88
40	0xe8	-24
41	0xd2	-46
42	0xe9	-23
43	0xa2	-94
44	0x15	21
45	0x81	-127
46	0x27	39
47	0xf4	-12
48	0xfe	-2
49	0xe3	-29
50	0xcb	-53
51	0x87	-121
52	0xa4	-92
53	0x84	-124
54	0xe0	-32
55	0x5c	92
56	0xd0	-48
57	0xf3	-13
58	0x45	69
59	0x0c	12
60	0xfe	-2
61	0x65	101
62	0x0c	12
63	0x00	0
64	0xfb	-5
65	0x12	18
66	0x4c	76
67	0x68	104
68	0x40	64
69	0xdc	-36
70	0x91	-111
71	0x9f	-97
72	0xf8	-8
73	0x36	54
74	0x3a	58
75	0xa2	-94
76	0x39	57
77	0xc8	-56
78	0x02	2
79	0x03	3
80	0xaf	-81
81	0xb6	-74
82	0x81	-127
83	0xbf	-65
84	0x37	55
85	0x04	4
86	0xeb	-21
87	0x68	104
88	0xbd	-67
89	0xd2	-46
90	0x4e	78
91	0x2b	43
92	0xf7	-9
93	0x1c	28
94	0xdd	-35
95	0x81	-127
96	0x9f	-97
97	0x11	17
98	0xf2	-14
99	0x48	72
100	0x16	22
101	0x19	25
102	0x21	33
103	0xb9	-71
104	0x39	57
105	0x3d	61
106	0xae	-82
107	0xf3	-13
108	0xe0	-32
109	0xa4	-92
110	0x2e	46
111	0xda	-38
112	0xdf	-33
113	0xba	-70
114	0xd2	-46
115	0xbe	-66
116	0x3b	59
117	0xd9	-39
118	0xbc	-68
119	0x2e	46
120	0xcd	-51
121	0xe0	-32
122	0x29	41
123	0xda	-38
124	0x1e	30
125	0xf7	-9
126	0xc4	-60
127	0x81	-127
128	0xcd	-51
129	0xc4	-60
130	0x18	24
131	0x57	87
132	0xe0	-32
133	0xd1	-47
134	0xfb	-5
135	0xb4	-76
136	0xf2	-14
137	0x14	20
138	0x0f	15
139	0xa6	-90
140	0x2c	44
141	0xd8	-40
142	0x01	1
143	0x27	39
144	0xf4	-12
145	0xf4	-12
146	0xba	-70
147	0xb4	-76
148	0x37	55
149	0xf4	-12
150	0xcd	-51
151	0x33	51
152	0xa0	-96
153	0x2f	47
154	0x19	25
155	0x12	18
156	0xde	-34
157	0xd2	-46
158	0x4f	79
159	0x9c	-100
160	0xfa	-6
161	0xf3	-13
162	0x51	81
163	0x49	73
164	0x23	35
165	0x29	41
166	0xaf	-81
167	0x13	19
168	0x6f	111
169	0x11	17
170	0x57	87
171	0x03	3
172	0x4a	74
173	0xce	-50
174	0xef	-17
175	0x3b	59
176	0x67	103
177	0x45	69
178	0x15	21
179	0x2a	42
180	0x69	105
181	0x65	101
182	0xa8	-88
183	0x60	96
184	0xb3	-77
185	0x3f	63
186	0x67	103
187	0x10	16
188	0xa0	-96
189	0xd0	-48
190	0x17	23
191	0xfc	-4
192	0x1b	27
193	0x34	52
194	0x4c	76
195	0x4d	77
196	0x09	9
197	0x7f	127
198	0x9c	-100
199	0xfa	-6
200	0x2d	45
201	0xdc	-36
202	0x0b	11
203	0xc9	-55
204	0xd9	-39
205	0xfb	-5
206	0x7f	127
207	0xd9	-39
208	0x4e	78
209	0xb3	-77
210	0x41	65
211	0x14	20
212	0x51	81
213	0xec	-20
214	0x17	23
215	0x39	57
216	0x8e	-114
217	0x06	6
218	0xc6	-58
219	0x00	0
220	0xd1	-47
221	0xda	-38
222	0x13	19
223	0xf8	-8
224	0xdd	-35
225	0x56	86
226	0xa8	-88
227	0xfc	-4
228	0x2d	45
229	0x26	38
230	0xa0	-96
231	0x6d	109
232	0x32	50
233	0x12	18
234	0x64	100
235	0x18	24
236	0x4d	77
237	0x0c	12
238	0x7e	126
239	0xe5	-27
240	0xf0	-16
241	0x04	4
242	0x2b	43
243	0x27	39
244	0xe9	-23
245	0xd5	-43
246	0xae	-82
247	0x06	6
248	0x81	-127
249	0x37	55
250	0xc8	-56
251	0x0d	13
252	0xcc	-52
253	0x1e	30
254	0x28	40
255	0x18	24

tfl.pseudo_qconst11 i1 [1, 9, 1, 32]
0	0xa9	-87
1	0xc2	-62
2	0xa0	-96
3	0x74	116
4	0x6a	106
5	0x7f	127
6	0x96	-106
7	0xbf	-65
8	0xef	-17
9	0x10	16
10	0x87	-121
11	0xdd	-35
12	0xb4	-76
13	0xe3	-29
14	0xfd	-3
15	0xf6	-10
16	0x04	4
17	0x81	-127
18	0xa9	-87
19	0x18	24
20	0x43	67
21	0x2e	46
22	0x0c	12
23	0xe7	-25
24	0xe2	-30
25	0xde	-34
26	0x38	56
27	0xc2	-62
28	0x7f	127
29	0x50	80
30	0xe3	-29
31	0xac	-84
32	0x1d	29
33	0xd7	-41
34	0x07	7
35	0x5f	95
36	0xfa	-6
37	0x29	41
38	0x81	-127
39	0xb5	-75
40	0xad	-83
41	0x5b	91
42	0xcf	-49
43	0x32	50
44	0x06	6
45	0x22	34
46	0x08	8
47	0xc5	-59
48	0xfc	-4
49	0x90	-112
50	0x81	-127
51	0x5f	95
52	0xb8	-72
53	0x2c	44
54	0x52	82
55	0x63	99
56	0xe0	-32
57	0x15	21
58	0x35	53
59	0xac	-84
60	0x3c	60
61	0x7f	127
62	0x81	-127
63	0x38	56
64	0xce	-50
65	0xdb	-37
66	0x04	4
67	0xb4	-76
68	0xab	-85
69	0x0e	14
70	0x0a	10
71	0x7f	127
72	0xdc	-36
73	0x2c	44
74	0x81	-127
75	0xfb	-5
76	0x81	-127
77	0x0e	14
78	0xbe	-66
79	0x81	-127
80	0xfe	-2
81	0xb8	-72
82	0xc5	-59
83	0x38	56
84	0xb8	-72
85	0x0d	13
86	0xca	-54
87	0x31	49
88	0xea	-22
89	0x7f	127
90	0x05	5
91	0xeb	-21
92	0x67	103
93	0x1e	30
94	0xe4	-28
95	0x7d	125
96	0xfa	-6
97	0x15	21
98	0x2a	42
99	0xd5	-43
100	0x6c	108
101	0x19	25
102	0xb2	-78
103	0x44	68
104	0xbb	-69
105	0xb4	-76
106	0xf4	-12
107	0x21	33
108	0x32	50
109	0x78	120
110	0xdd	-35
111	0xf2	-14
112	0xfd	-3
113	0x71	113
114	0x00	0
115	0x7f	127
116	0x81	-127
117	0x38	56
118	0x11	17
119	0xca	-54
120	0x7f	127
121	0x49	73
122	0x35	53
123	0x7f	127
124	0x4b	75
125	0x7c	124
126	0xc4	-60
127	0x54	84
128	0xf6	-10
129	0xe3	-29
130	0x5a	90
131	0x81	-127
132	0x2f	47
133	0xf9	-7
134	0x4c	76
135	0xdc	-36
136	0xc6	-58
137	0xbe	-66
138	0xf2	-14
139	0x20	32
140	0x02	2
141	0xca	-54
142	0xbc	-68
143	0xcc	-52
144	0x22	34
145	0x2b	43
146	0x8b	-117
147	0x4e	78
148	0xb6	-74
149	0xee	-18
150	0x10	16
151	0x92	-110
152	0x3f	63
153	0x05	5
154	0x7f	127
155	0x4d	77
156	0x3b	59
157	0x6c	108
158	0x23	35
159	0x7f	127
160	0x12	18
161	0x19	25
162	0xb1	-79
163	0x0f	15
164	0x0c	12
165	0x52	82
166	0xbf	-65
167	0xdd	-35
168	0xba	-70
169	0x81	-127
170	0x16	22
171	0x49	73
172	0xbb	-69
173	0xae	-82
174	0xbc	-68
175	0xf0	-16
176	0xe0	-32
177	0x3e	62
178	0xc8	-56
179	0xd5	-43
180	0x15	21
181	0x98	-104
182	0xec	-20
183	0xb0	-80
184	0x35	53
185	0x28	40
186	0x76	118
187	0x7b	123
188	0x2f	47
189	0x4d	77
190	0xf6	-10
191	0x5d	93
192	0xc5	-59
193	0x4a	74
194	0xfe	-2
195	0x84	-124
196	0x7f	127
197	0x25	37
198	0x45	69
199	0x6e	110
200	0x9c	-100
201	0xe8	-24
202	0xd6	-42
203	0x76	118
204	0x66	102
205	0x0f	15
206	0x22	34
207	0x4b	75
208	0xed	-19
209	0xdf	-33
210	0x3b	59
211	0xd4	-44
212	0xdc	-36
213	0x81	-127
214	0x0e	14
215	0x44	68
216	0xd4	-44
217	0x00	0
218	0x0c	12
219	0xe8	-24
220	0xac	-84
221	0xce	-50
222	0x36	54
223	0x26	38
224	0x31	49
225	0x3e	62
226	0x43	67
227	0x25	37
228	0xd9	-39
229	0xa8	-88
230	0x34	52
231	0x02	2
232	0x81	-127
233	0xe5	-27
234	0xef	-17
235	0x7f	127
236	0xf1	-15
237	0x81	-127
238	0x0e	14
239	0x2b	43
240	0xaa	-86
241	0x0a	10
242	0x64	100
243	0x0d	13
244	0x9d	-99
245	0x0a	10
246	0x7f	127
247	0x13	19
248	0xb3	-77
249	0xac	-84
250	0x1d	29
251	0xc8	-56
252	0xfb	-5
253	0xed	-19
254	0xcf	-49
255	0x02	2

tfl.pseudo_qconst13 i1 [64, 1, 1, 64]
0	0x1d	29
1	0x0b	11
2	0xea	-22
3	0xf7	-9
4	0xfd	-3
5	0x3a	58
6	0x25	37
7	0x24	36
8	0xd9	-39
9	0x15	21
10	0xd4	-44
11	0x27	39
12	0xf0	-16
13	0x06	6
14	0xd3	-45
15	0x22	34
16	0xd3	-45
17	0xc6	-58
18	0x1a	26
19	0x43	67
20	0xcf	-49
21	0x12	18
22	0x05	5
23	0x11	17
24	0xdf	-33
25	0x04	4
26	0x81	-127
27	0x43	67
28	0x35	53
29	0x3e	62
30	0x13	19
31	0xec	-20
32	0x0e	14
33	0xd1	-47
34	0x06	6
35	0xf4	-12
36	0x12	18
37	0x26	38
38	0xd2	-46
39	0x38	56
40	0x25	37
41	0xbe	-66
42	0xfd	-3
43	0xdd	-35
44	0xe3	-29
45	0xce	-50
46	0xf8	-8
47	0x30	48
48	0x0a	10
49	0x09	9
50	0x05	5
51	0xf0	-16
52	0xea	-22
53	0x46	70
54	0x22	34
55	0xeb	-21
56	0xaa	-86
57	0x4b	75
58	0x12	18
59	0xb4	-76
60	0x1d	29
61	0xe6	-26
62	0x17	23
63	0xdc	-36
64	0xf3	-13
65	0x09	9
66	0x8d	-115
67	0xe0	-32
68	0x6e	110
69	0xf9	-7
70	0x09	9
71	0xf5	-11
72	0x66	102
73	0xe4	-28
74	0x2e	46
75	0xd5	-43
76	0x01	1
77	0xd1	-47
78	0xef	-17
79	0xbb	-69
80	0x12	18
81	0x3c	60
82	0x97	-105
83	0xe8	-24
84	0x06	6
85	0x2e	46
86	0xbd	-67
87	0xba	-70
88	0x1e	30
89	0x1c	28
90	0x05	5
91	0x4b	75
92	0x3b	59
93	0x67	103
94	0x1e	30
95	0xdc	-36
96	0x1a	26
97	0xcc	-52
98	0x97	-105
99	0xa2	-94
100	0xe2	-30
101	0x81	-127
102	0x01	1
103	0x40	64
104	0xc3	-61
105	0xcc	-52
106	0xf2	-14
107	0xea	-22
108	0xfb	-5
109	0x1d	29
110	0x2e	46
111	0x10	16
112	0x31	49
113	0xb3	-77
114	0xa9	-87
115	0xef	-17
116	0xfc	-4
117	0xcd	-51
118	0xb6	-74
119	0xca	-54
120	0xe7	-25
121	0x0e	14
122	0x2c	44
123	0xe0	-32
124	0x2f	47
125	0x2e	46
126	0xf0	-16
127	0x38	56
128	0x03	3
129	0xdd	-35
130	0x08	8
131	0x05	5
132	0x13	19
133	0x40	64
134	0x9b	-101
135	0x11	17
136	0x9e	-98
137	0xf8	-8
138	0x69	105
139	0xd7	-41
140	0x81	-127
141	0x0c	12
142	0x28	40
143	0x28	40
144	0x37	55
145	0xfd	-3
146	0xf2	-14
147	0xeb	-21
148	0xd4	-44
149	0x4e	78
150	0x57	87
151	0x37	55
152	0xc4	-60
153	0x22	34
154	0x01	1
155	0xcb	-53
156	0xc3	-61
157	0x1a	26
158	0x0c	12
159	0x3b	59
160	0x6d	109
161	0xc9	-55
162	0x33	51
163	0xe8	-24
164	0x1b	27
165	0x04	4
166	0xea	-22
167	0xdd	-35
168	0xe8	-24
169	0x1b	27
170	0x13	19
171	0xb9	-71
172	0xfa	-6
173	0xeb	-21
174	0x59	89
175	0xcc	-52
176	0xf8	-8
177	0xfc	-4
178	0xdd	-35
179	0x48	72
180	0xf9	-7
181	0x0f	15
182	0xf2	-14
183	0x3a	58
184	0xc5	-59
185	0xff	-1
186	0xe5	-27
187	0x45	69
188	0xfd	-3
189	0x23	35
190	0xf0	-16
191	0xc8	-56
192	0xdc	-36
193	0x33	51
194	0xd6	-42
195	0x18	24
196	0x46	70
197	0x50	80
198	0xc6	-58
199	0xbb	-69
200	0xe6	-26
201	0xe9	-23
202	0x2c	44
203	0xe0	-32
204	0x9f	-97
205	0x4b	75
206	0x2e	46
207	0x44	68
208	0x1a	26
209	0xc1	-63
210	0x56	86
211	0x35	53
212	0x7f	127
213	0xd8	-40
214	0x40	64
215	0xd9	-39
216	0xc0	-64
217	0x43	67
218	0x94	-108
219	0x41	65
220	0x12	18
221	0x12	18
222	0xd2	-46
223	0xf4	-12
224	0x46	70
225	0xa6	-90
226	0x33	51
227	0xc8	-56
228	0xfb	-5
229	0x66	102
230	0xf8	-8
231	0x63	99
232	0x10	16
233	0xfe	-2
234	0x0e	14
235	0x0c	12
236	0xeb	-21
237	0x00	0
238	0xd8	-40
239	0xcd	-51
240	0x6e	110
241	0x12	18
242	0xd0	-48
243	0xc3	-61
244	0xe4	-28
245	0x28	40
246	0xc5	-59
247	0xb5	-75
248	0xf9	-7
249	0x3c	60
250	0xd0	-48
251	0xe9	-23
252	0x4e	78
253	0x4f	79
254	0x1f	31
255	0x4c	76

tfl.pseudo_qconst15 i1 [1, 11, 1, 32]
0	0xda	-38
1	0x05	5
2	0x43	67
3	0xe2	-30
4	0x77	119
5	0x29	41
6	0x42	66
7	0x53	83
8	0xec	-20
9	0xdf	-33
10	0xae	-82
11	0xb2	-78
12	0x5c	92
13	0x12	18
14	0x4e	78
15	0xff	-1
16	0xf4	-12
17	0xb7	-73
18	0xf7	-9
19	0xdd	-35
20	0xf9	-7
21	0x3d	61
22	0xaa	-86
23	0xdb	-37
24	0x04	4
25	0x64	100
26	0x2a	42
27	0x37	55
28	0xc9	-55
29	0xf0	-16
30	0xf3	-13
31	0x7f	127
32	0x62	98
33	0x94	-108
34	0xa2	-94
35	0x2f	47
36	0x47	71
37	0x54	84
38	0xc2	-62
39	0x27	39
40	0xc9	-55
41	0xe6	-26
42	0x74	116
43	0xf7	-9
44	0x5b	91
45	0x81	-127
46	0xe8	-24
47	0xd1	-47
48	0x1d	29
49	0x03	3
50	0x36	54
51	0xd3	-45
52	0x41	65
53	0x1b	27
54	0x14	20
55	0xac	-84
56	0xbf	-65
57	0x4d	77
58	0xda	-38
59	0x02	2
60	0xfe	-2
61	0x02	2
62	0x1d	29
63	0x75	117
64	0x2d	45
65	0xaf	-81
66	0xaa	-86
67	0xa5	-91
68	0x22	34
69	0x66	102
70	0x25	37
71	0xd9	-39
72	0xe3	-29
73	0xc1	-63
74	0xcc	-52
75	0x5a	90
76	0xda	-38
77	0xad	-83
78	0x7f	127
79	0xdc	-36
80	0x49	73
81	0x11	17
82	0xdb	-37
83	0xc4	-60
84	0x2d	45
85	0xe3	-29
86	0x24	36
87	0xbd	-67
88	0x4a	74
89	0x17	23
90	0x51	81
91	0x02	2
92	0xc1	-63
93	0x97	-105
94	0x29	41
95	0x57	87
96	0xd0	-48
97	0x11	17
98	0xce	-50
99	0xaa	-86
100	0x7f	127
101	0x3e	62
102	0xe8	-24
103	0xd7	-41
104	0xf4	-12
105	0x3e	62
106	0xcb	-53
107	0x5e	94
108	0x9b	-101
109	0xdd	-35
110	0x51	81
111	0xd4	-44
112	0xba	-70
113	0xe8	-24
114	0x4f	79
115	0x81	-127
116	0x45	69
117	0xc4	-60
118	0x7f	127
119	0x8d	-115
120	0x06	6
121	0x14	20
122	0x7f	127
123	0x7f	127
124	0x53	83
125	0x0b	11
126	0x09	9
127	0x2f	47
128	0x2d	45
129	0xf8	-8
130	0xc4	-60
131	0xc0	-64
132	0x73	115
133	0x26	38
134	0x75	117
135	0xd8	-40
136	0x31	49
137	0xf2	-14
138	0xcf	-49
139	0xe9	-23
140	0xd8	-40
141	0x44	68
142	0x3c	60
143	0x74	116
144	0xda	-38
145	0x07	7
146	0x1e	30
147	0xe0	-32
148	0x57	87
149	0xcf	-49
150	0x29	41
151	0x81	-127
152	0x4f	79
153	0xc8	-56
154	0x53	83
155	0x03	3
156	0x41	65
157	0x13	19
158	0x51	81
159	0xe8	-24
160	0x9d	-99
161	0x1e	30
162	0x52	82
163	0xeb	-21
164	0x30	48
165	0xef	-17
166	0xe2	-30
167	0x26	38
168	0xe9	-23
169	0xef	-17
170	0x75	117
171	0x81	-127
172	0xed	-19
173	0x3a	58
174	0x51	81
175	0x84	-124
176	0x7f	127
177	0x7f	127
178	0x3c	60
179	0xf9	-7
180	0xf7	-9
181	0x21	33
182	0x2f	47
183	0x06	6
184	0x7f	127
185	0xe7	-25
186	0x9d	-99
187	0x31	49
188	0x2a	42
189	0xee	-18
190	0xd3	-45
191	0x14	20
192	0x81	-127
193	0x5c	92
194	0x50	80
195	0xf7	-9
196	0x73	115
197	0x7f	127
198	0xa6	-90
199	0x05	5
200	0xd6	-42
201	0x26	38
202	0x7f	127
203	0xab	-85
204	0x7f	127
205	0x52	82
206	0x6b	107
207	0x81	-127
208	0xca	-54
209	0x31	49
210	0x3f	63
211	0x16	22
212	0xfb	-5
213	0x4f	79
214	0x6b	107
215	0xf4	-12
216	0x3f	63
217	0x17	23
218	0xcb	-53
219	0x4f	79
220	0x12	18
221	0x0d	13
222	0xdc	-36
223	0x52	82
224	0x89	-119
225	0x62	98
226	0x7f	127
227	0x42	66
228	0xbf	-65
229	0x4c	76
230	0x6d	109
231	0x12	18
232	0x6d	109
233	0x31	49
234	0x68	104
235	0x04	4
236	0x7a	122
237	0xe3	-29
238	0x32	50
239	0x37	55
240	0xe2	-30
241	0xba	-70
242	0xeb	-21
243	0x72	114
244	0x04	4
245	0x1d	29
246	0x58	88
247	0x16	22
248	0x19	25
249	0xac	-84
250	0xa4	-92
251	0xa6	-90
252	0xdd	-35
253	0xbb	-69
254	0x0c	12
255	0xd6	-42

tfl.pseudo_qconst17 i1 [1, 7, 1, 32]
0	0x58	88
1	0xe8	-24
2	0x6b	107
3	0x51	81
4	0xf9	-7
5	0x5a	90
6	0x5e	94
7	0xf4	-12
8	0x77	119
9	0xb8	-72
10	0x39	57
11	0xe9	-23
12	0x6d	109
13	0xae	-82
14	0x81	-127
15	0x75	117
16	0x1e	30
17	0xb7	-73
18	0x93	-109
19	0xea	-22
20	0x49	73
21	0xcb	-53
22	0xc7	-57
23	0x4e	78
24	0xda	-38
25	0x2a	42
26	0x1c	28
27	0xf7	-9
28	0xf1	-15
29	0x44	68
30	0x05	5
31	0xe4	-28
32	0x61	97
33	0xd9	-39
34	0x63	99
35	0xe6	-26
36	0xed	-19
37	0x11	17
38	0xb5	-75
39	0x40	64
40	0xec	-20
41	0xee	-18
42	0x31	49
43	0xc1	-63
44	0x24	36
45	0xff	-1
46	0xb1	-79
47	0x58	88
48	0x7f	127
49	0x7f	127
50	0xe5	-27
51	0x36	54
52	0x1c	28
53	0x19	25
54	0x2c	44
55	0x38	56
56	0x29	41
57	0x42	66
58	0x5d	93
59	0x34	52
60	0x81	-127
61	0x1f	31
62	0x93	-109
63	0x7f	127
64	0xc9	-55
65	0x7f	127
66	0x7f	127
67	0x3e	62
68	0xfd	-3
69	0xd9	-39
70	0xd8	-40
71	0x0c	12
72	0xde	-34
73	0xb5	-75
74	0x11	17
75	0xcb	-53
76	0x49	73
77	0x0b	11
78	0xdb	-37
79	0x2f	47
80	0x29	41
81	0xfe	-2
82	0xf7	-9
83	0xcc	-52
84	0x32	50
85	0x7f	127
86	0x5c	92
87	0x1b	27
88	0xd9	-39
89	0x3d	61
90	0x22	34
91	0xc1	-63
92	0xcd	-51
93	0xbf	-65
94	0xd2	-46
95	0x14	20
96	0x8e	-114
97	0x1b	27
98	0x02	2
99	0xf9	-7
100	0x81	-127
101	0x98	-104
102	0xa7	-89
103	0xdf	-33
104	0x4e	78
105	0x81	-127
106	0xb2	-78
107	0x22	34
108	0x45	69
109	0x58	88
110	0x19	25
111	0xbc	-68
112	0x46	70
113	0x1d	29
114	0x46	70
115	0x21	33
116	0xb5	-75
117	0x05	5
118	0x77	119
119	0x32	50
120	0x11	17
121	0x65	101
122	0xa1	-95
123	0x91	-111
124	0x0e	14
125	0x81	-127
126	0x81	-127
127	0x5b	91
128	0x7f	127
129	0xdc	-36
130	0x9f	-97
131	0x86	-122
132	0xc0	-64
133	0x1e	30
134	0x6e	110
135	0x5b	91
136	0x1b	27
137	0xeb	-21
138	0xb5	-75
139	0x34	52
140	0x0b	11
141	0xe4	-28
142	0xd5	-43
143	0x9d	-99
144	0xcf	-49
145	0xa6	-90
146	0x7f	127
147	0x73	115
148	0xe9	-23
149	0xf6	-10
150	0xda	-38
151	0x59	89
152	0x7f	127
153	0xba	-70
154	0x36	54
155	0xef	-17
156	0xbb	-69
157	0x13	19
158	0xc0	-64
159	0x3e	62
160	0x6f	111
161	0xff	-1
162	0x25	37
163	0xd3	-45
164	0xd9	-39
165	0x13	19
166	0x21	33
167	0x3b	59
168	0x06	6
169	0x8d	-115
170	0xd9	-39
171	0x7f	127
172	0x81	-127
173	0x7f	127
174	0x46	70
175	0x85	-123
176	0x8f	-113
177	0xe3	-29
178	0xdb	-37
179	0x81	-127
180	0x81	-127
181	0xe1	-31
182	0xbb	-69
183	0x7f	127
184	0x0c	12
185	0x81	-127
186	0x9f	-97
187	0x81	-127
188	0x37	55
189	0xb6	-74
190	0xf1	-15
191	0x02	2
192	0x0e	14
193	0x9e	-98
194	0x9b	-101
195	0x7f	127
196	0x88	-120
197	0x81	-127
198	0x81	-127
199	0x7f	127
200	0x7f	127
201	0x79	121
202	0x7f	127
203	0x06	6
204	0x97	-105
205	0x68	104
206	0xc5	-59
207	0x81	-127
208	0x66	102
209	0x70	112
210	0x3a	58
211	0xa8	-88
212	0xd7	-41
213	0x1b	27
214	0x81	-127
215	0x48	72
216	0x68	104
217	0x79	121
218	0x81	-127
219	0xef	-17
220	0x74	116
221	0xa3	-93
222	0xb0	-80
223	0xf0	-16

tfl.pseudo_qconst19 i1 [64, 1, 1, 32]
0	0xcb	-53
1	0xd8	-40
2	0xf6	-10
3	0x24	36
4	0x0d	13
5	0x2a	42
6	0xee	-18
7	0xe7	-25
8	0xda	-38
9	0x2a	42
10	0x43	67
11	0x53	83
12	0x81	-127
13	0xc0	-64
14	0xeb	-21
15	0x02	2
16	0x2a	42
17	0x7a	122
18	0x27	39
19	0x0f	15
20	0xcb	-53
21	0xab	-85
22	0x3b	59
23	0x95	-107
24	0x01	1
25	0x3f	63
26	0x93	-109
27	0x27	39
28	0x45	69
29	0x35	53
30	0x21	33
31	0xda	-38
32	0x9e	-98
33	0x20	32
34	0x11	17
35	0x15	21
36	0x62	98
37	0x46	70
38	0x17	23
39	0xfd	-3
40	0x9d	-99
41	0x1a	26
42	0x65	101
43	0x6f	111
44	0x30	48
45	0x3d	61
46	0xfd	-3
47	0xd2	-46
48	0xcf	-49
49	0x2c	44
50	0x71	113
51	0x49	73
52	0x2c	44
53	0x42	66
54	0xfb	-5
55	0x21	33
56	0x07	7
57	0x2f	47
58	0xce	-50
59	0x81	-127
60	0x09	9
61	0xba	-70
62	0xe0	-32
63	0xea	-22
64	0x0d	13
65	0xf3	-13
66	0xe5	-27
67	0xd4	-44
68	0xe6	-26
69	0xb6	-74
70	0xbc	-68
71	0xcd	-51
72	0x7f	127
73	0xe9	-23
74	0xe9	-23
75	0xf0	-16
76	0x17	23
77	0x05	5
78	0xcb	-53
79	0x22	34
80	0x35	53
81	0x6e	110
82	0x47	71
83	0xd4	-44
84	0xed	-19
85	0xd0	-48
86	0xa4	-92
87	0x08	8
88	0xcd	-51
89	0xce	-50
90	0xd0	-48
91	0xf4	-12
92	0x16	22
93	0xd5	-43
94	0xfa	-6
95	0xd2	-46
96	0xb8	-72
97	0x7f	127
98	0xd5	-43
99	0x59	89
100	0x68	104
101	0x30	48
102	0x52	82
103	0xd9	-39
104	0xad	-83
105	0xe5	-27
106	0x33	51
107	0xc1	-63
108	0x9f	-97
109	0x46	70
110	0xf6	-10
111	0xea	-22
112	0x6f	111
113	0x08	8
114	0x06	6
115	0x3b	59
116	0xa9	-87
117	0x88	-120
118	0xcd	-51
119	0xba	-70
120	0x93	-109
121	0x1d	29
122	0x5d	93
123	0x16	22
124	0x49	73
125	0x45	69
126	0xf2	-14
127	0xf5	-11
128	0x25	37
129	0x63	99
130	0x73	115
131	0x1b	27
132	0x59	89
133	0xb6	-74
134	0xe6	-26
135	0x6b	107
136	0x3b	59
137	0x54	84
138	0xcb	-53
139	0x5c	92
140	0x8c	-116
141	0x3c	60
142	0xdf	-33
143	0xb8	-72
144	0x7f	127
145	0x13	19
146	0x98	-104
147	0xfd	-3
148	0xeb	-21
149	0x18	24
150	0x30	48
151	0xd2	-46
152	0x1e	30
153	0xda	-38
154	0x04	4
155	0x3a	58
156	0x68	104
157	0xeb	-21
158	0xe6	-26
159	0xbf	-65
160	0x9e	-98
161	0x41	65
162	0xdf	-33
163	0xb4	-76
164	0xfd	-3
165	0xd5	-43
166	0x07	7
167	0xe5	-27
168	0x39	57
169	0xe4	-28
170	0xea	-22
171	0xea	-22
172	0x81	-127
173	0x61	97
174	0x8d	-115
175	0x1e	30
176	0xf3	-13
177	0xec	-20
178	0xbb	-69
179	0x03	3
180	0xea	-22
181	0x62	98
182	0xb2	-78
183	0x49	73
184	0x65	101
185	0xc4	-60
186	0x8e	-114
187	0x4f	79
188	0xde	-34
189	0x74	116
190	0xc0	-64
191	0x51	81
192	0x0f	15
193	0x25	37
194	0xf0	-16
195	0x23	35
196	0xee	-18
197	0xf7	-9
198	0xfd	-3
199	0xd7	-41
200	0xe5	-27
201	0x81	-127
202	0xc1	-63
203	0x46	70
204	0x32	50
205	0xc5	-59
206	0xee	-18
207	0xdb	-37
208	0xb0	-80
209	0x7d	125
210	0xb7	-73
211	0xaa	-86
212	0x38	56
213	0xba	-70
214	0xee	-18
215	0x56	86
216	0xdc	-36
217	0xa7	-89
218	0xb1	-79
219	0x86	-122
220	0xe4	-28
221	0xde	-34
222	0xcf	-49
223	0x3f	63
224	0x26	38
225	0x81	-127
226	0x51	81
227	0x22	34
228	0xe5	-27
229	0x4e	78
230	0x0d	13
231	0x05	5
232	0xa9	-87
233	0x05	5
234	0xf0	-16
235	0xe1	-31
236	0xe5	-27
237	0xb5	-75
238	0xef	-17
239	0x5e	94
240	0x03	3
241	0x39	57
242	0xf9	-7
243	0xe3	-29
244	0x14	20
245	0xbd	-67
246	0xdd	-35
247	0x45	69
248	0xd2	-46
249	0xaf	-81
250	0x54	84
251	0xee	-18
252	0xad	-83
253	0x84	-124
254	0xcd	-51
255	0x5e	94

tfl.pseudo_qconst21 i1 [1, 5, 1, 32]
0	0x7f	127
1	0x27	39
2	0x3e	62
3	0x2a	42
4	0x81	-127
5	0xf4	-12
6	0x59	89
7	0xe1	-31
8	0xb8	-72
9	0x97	-105
10	0x4a	74
11	0xee	-18
12	0xfa	-6
13	0x07	7
14	0xf9	-7
15	0x81	-127
16	0xaf	-81
17	0xb3	-77
18	0x7f	127
19	0x50	80
20	0xd5	-43
21	0x45	69
22	0x7f	127
23	0xf3	-13
24	0x7c	124
25	0xd9	-39
26	0x97	-105
27	0xfe	-2
28	0x7f	127
29	0xb0	-80
30	0x3d	61
31	0x52	82
32	0xab	-85
33	0x21	33
34	0x4f	79
35	0x0d	13
36	0xf8	-8
37	0x7f	127
38	0xff	-1
39	0x13	19
40	0x81	-127
41	0x4e	78
42	0xc9	-55
43	0xc7	-57
44	0xdc	-36
45	0x72	114
46	0xb0	-80
47	0x47	71
48	0x7f	127
49	0xdd	-35
50	0x0b	11
51	0x7f	127
52	0x81	-127
53	0x7f	127
54	0xf9	-7
55	0x09	9
56	0x09	9
57	0x81	-127
58	0x81	-127
59	0xe9	-23
60	0xf6	-10
61	0x38	56
62	0xcd	-51
63	0x7f	127
64	0x8f	-113
65	0xcc	-52
66	0x89	-119
67	0x7f	127
68	0x63	99
69	0x77	119
70	0x81	-127
71	0xcf	-49
72	0x81	-127
73	0x3c	60
74	0x89	-119
75	0xa6	-90
76	0x49	73
77	0xa1	-95
78	0x7f	127
79	0x43	67
80	0x45	69
81	0x90	-112
82	0x83	-125
83	0xad	-83
84	0x5e	94
85	0x5e	94
86	0x46	70
87	0x65	101
88	0x2a	42
89	0x56	86
90	0xfc	-4
91	0x97	-105
92	0xbb	-69
93	0x7d	125
94	0x7f	127
95	0xc6	-58
96	0x60	96
97	0x81	-127
98	0xdc	-36
99	0x39	57
100	0xbd	-67
101	0x4c	76
102	0x61	97
103	0x4f	79
104	0xb9	-71
105	0x7f	127
106	0xab	-85
107	0x0d	13
108	0x2b	43
109	0x7f	127
110	0xe4	-28
111	0x11	17
112	0x8a	-118
113	0x81	-127
114	0x2b	43
115	0xfd	-3
116	0x23	35
117	0x24	36
118	0x08	8
119	0x7f	127
120	0xb5	-75
121	0x6a	106
122	0x2c	44
123	0xaf	-81
124	0x8e	-114
125	0x7f	127
126	0xd0	-48
127	0x17	23
128	0x55	85
129	0xfb	-5
130	0x7f	127
131	0x28	40
132	0xd5	-43
133	0x1f	31
134	0x5b	91
135	0x7f	127
136	0x89	-119
137	0x8d	-115
138	0x7f	127
139	0x81	-127
140	0x81	-127
141	0xa6	-90
142	0xfc	-4
143	0xec	-20
144	0x9d	-99
145	0xec	-20
146	0x22	34
147	0xb0	-80
148	0xe9	-23
149	0xe6	-26
150	0xfd	-3
151	0xba	-70
152	0x81	-127
153	0x95	-107
154	0x62	98
155	0x7f	127
156	0xc9	-55
157	0xba	-70
158	0x2d	45
159	0xb3	-77

tfl.pseudo_qconst23 i1 [32, 5, 1, 40]
0	0x51	81
1	0x4f	79
2	0x1f	31
3	0x48	72
4	0x41	65
5	0x46	70
6	0x1c	28
7	0xf5	-11
8	0x3b	59
9	0x3b	59
10	0xe0	-32
11	0xe1	-31
12	0x2b	43
13	0xd5	-43
14	0x0c	12
15	0xd7	-41
16	0x33	51
17	0xed	-19
18	0x08	8
19	0xdb	-37
20	0x0c	12
21	0xbd	-67
22	0xf5	-11
23	0xec	-20
24	0x06	6
25	0xef	-17
26	0x14	20
27	0x04	4
28	0xc6	-58
29	0xe7	-25
30	0xcb	-53
31	0x11	17
32	0x27	39
33	0x0e	14
34	0xe1	-31
35	0xd5	-43
36	0xdb	-37
37	0xc4	-60
38	0xfe	-2
39	0xfb	-5
40	0x54	84
41	0x2c	44
42	0xf1	-15
43	0x2a	42
44	0x2c	44
45	0x5e	94
46	0x35	53
47	0xf1	-15
48	0x3d	61
49	0xf9	-7
50	0x1f	31
51	0x11	17
52	0xef	-17
53	0x10	16
54	0x2d	45
55	0x04	4
56	0xee	-18
57	0xfa	-6
58	0x17	23
59	0xf2	-14
60	0xe2	-30
61	0xc7	-57
62	0xce	-50
63	0xe4	-28
64	0x1d	29
65	0x2d	45
66	0xf1	-15
67	0xd4	-44
68	0x04	4
69	0x13	19
70	0xe1	-31
71	0x1b	27
72	0x51	81
73	0x10	16
74	0xfe	-2
75	0xd2	-46
76	0xe2	-30
77	0xee	-18
78	0xe1	-31
79	0xda	-38
80	0x5b	91
81	0x35	53
82	0x2d	45
83	0x29	41
84	0x31	49
85	0x10	16
86	0x0b	11
87	0xe4	-28
88	0xf7	-9
89	0xee	-18
90	0x49	73
91	0xf0	-16
92	0xe6	-26
93	0xea	-22
94	0x27	39
95	0xe6	-26
96	0x48	72
97	0x05	5
98	0x04	4
99	0x22	34
100	0xed	-19
101	0xe9	-23
102	0xe1	-31
103	0xff	-1
104	0x1b	27
105	0x23	35
106	0xf0	-16
107	0xfc	-4
108	0xe4	-28
109	0x18	24
110	0x18	24
111	0x4f	79
112	0x53	83
113	0x43	67
114	0xfb	-5
115	0x01	1
116	0xd8	-40
117	0xb5	-75
118	0xdd	-35
119	0xc8	-56
120	0x7f	127
121	0x07	7
122	0xea	-22
123	0xe7	-25
124	0xc9	-55
125	0x22	34
126	0xe2	-30
127	0xd0	-48
128	0xef	-17
129	0xec	-20
130	0x31	49
131	0x28	40
132	0x0a	10
133	0x0e	14
134	0xfa	-6
135	0x00	0
136	0x39	57
137	0x0c	12
138	0xe7	-25
139	0x15	21
140	0x00	0
141	0xda	-38
142	0x29	41
143	0xd1	-47
144	0x16	22
145	0x36	54
146	0x25	37
147	0xc4	-60
148	0xfd	-3
149	0xe7	-25
150	0x0f	15
151	0x2d	45
152	0x50	80
153	0xd7	-41
154	0x16	22
155	0x11	17
156	0xd8	-40
157	0xe6	-26
158	0x06	6
159	0xed	-19
160	0x60	96
161	0xd5	-43
162	0xd6	-42
163	0xc7	-57
164	0xbf	-65
165	0xe9	-23
166	0xf6	-10
167	0xe9	-23
168	0xcb	-53
169	0x07	7
170	0x2d	45
171	0xfd	-3
172	0x2a	42
173	0x24	36
174	0xc4	-60
175	0xda	-38
176	0xeb	-21
177	0x02	2
178	0x25	37
179	0x24	36
180	0xf1	-15
181	0xe5	-27
182	0x03	3
183	0x11	17
184	0x04	4
185	0x2e	46
186	0x03	3
187	0x1a	26
188	0xe7	-25
189	0x3f	63
190	0x25	37
191	0x42	66
192	0x05	5
193	0x0a	10
194	0x2a	42
195	0x26	38
196	0x0c	12
197	0x34	52
198	0x3b	59
199	0xee	-18
200	0x37	55
201	0x3a	58
202	0x21	33
203	0x4c	76
204	0xf0	-16
205	0x4c	76
206	0xe9	-23
207	0x37	55
208	0x01	1
209	0x26	38
210	0x31	49
211	0x03	3
212	0x41	65
213	0x0c	12
214	0x31	49
215	0x04	4
216	0xef	-17
217	0x3b	59
218	0xe7	-25
219	0x19	25
220	0x41	65
221	0x00	0
222	0x0b	11
223	0xc8	-56
224	0xe9	-23
225	0x3f	63
226	0x42	66
227	0xd4	-44
228	0xd8	-40
229	0xcd	-51
230	0x14	20
231	0xed	-19
232	0x08	8
233	0x1e	30
234	0x43	67
235	0x2f	47
236	0x2f	47
237	0x1c	28
238	0xe6	-26
239	0xf8	-8
240	0x30	48
241	0x40	64
242	0xd1	-47
243	0xe6	-26
244	0xec	-20
245	0x44	68
246	0x35	53
247	0x1b	27
248	0x14	20
249	0xf2	-14
250	0x4d	77
251	0x31	49
252	0x2e	46
253	0x5b	91
254	0x6a	106
255	0x04	4

tfl.pseudo_qconst24 i1 [1, 22, 1, 64] scale=0.033195417 zero_point=-128
0	0x80	0.0
1	0x80	0.0
2	0x80	0.0
3	0x80	0.0
4	0x80	0.0
5	0x80	0.0
6	0x80	0.0
7	0x80	0.0
8	0x80	0.0
9	0x80	0.0
10	0x80	0.0
11	0x80	0.0
12	0x80	0.0
13	0x80	0.0
14	0x80	0.0
15	0x80	0.0
16	0x80	0.0
17	0x80	0.0
18	0x80	0.0
19	0x80	0.0
20	0x80	0.0
21	0x80	0.0
22	0x80	0.0
23	0x80	0.0
24	0x80	0.0
25	0x80	0.0
26	0x80	0.0
27	0x80	0.0
28	0x80	0.0
29	0x80	0.0
30	0x80	0.0
31	0x80	0.0
32	0x80	0.0
33	0x80	0.0
34	0x80	0.0
35	0x80	0.0
36	0x80	0.0
37	0x80	0.0
38	0x80	0.0
39	0x80	0.0
40	0x80	0.0
41	0x80	0.0
42	0x80	0.0
43	0x80	0.0
44	0x80	0.0
45	0x80	0.0
46	0x80	0.0
47	0x80	0.0
48	0x80	0.0
49	0x80	0.0
50	0x80	0.0
51	0x80	0.0
52	0x80	0.0
53	0x80	0.0
54	0x80	0.0
55	0x80	0.0
56	0x80	0.0
57	0x80	0.0
58	0x80	0.0
59	0x80	0.0
60	0x80	0.0
61	0x80	0.0
62	0x80	0.0
63	0x80	0.0
64	0x80	0.0
65	0x80	0.0
66	0x80	0.0
67	0x80	0.0
68	0x80	0.0
69	0x80	0.0
70	0x80	0.0
71	0x80	0.0
72	0x80	0.0
73	0x80	0.0
74	0x80	0.0
75	0x80	0.0
76	0x80	0.0
77	0x80	0.0
78	0x80	0.0
79	0x80	0.0
80	0x80	0.0
81	0x80	0.0
82	0x80	0.0
83	0x80	0.0
84	0x80	0.0
85	0x80	0.0
86	0x80	0.0
87	0x80	0.0
88	0x80	0.0
89	0x80	0.0
90	0x80	0.0
91	0x80	0.0
92	0x80	0.0
93	0x80	0.0
94	0x80	0.0
95	0x80	0.0
96	0x80	0.0
97	0x80	0.0
98	0x80	0.0
99	0x80	0.0
100	0x80	0.0
101	0x80	0.0
102	0x80	0.0
103	0x80	0.0
104	0x80	0.0
105	0x80	0.0
106	0x80	0.0
107	0x80	0.0
108	0x80	0.0
109	0x80	0.0
110	0x80	0.0
111	0x80	0.0
112	0x80	0.0
113	0x80	0.0
114	0x80	0.0
115	0x80	0.0
116	0x80	0.0
117	0x80	0.0
118	0x80	0.0
119	0x80	0.0
120	0x80	0.0
121	0x80	0.0
122	0x80	0.0
123	0x80	0.0
124	0x80	0.0
125	0x80	0.0
126	0x80	0.0
127	0x80	0.0
128	0x80	0.0
129	0x80	0.0
130	0x80	0.0
131	0x80	0.0
132	0x80	0.0
133	0x80	0.0
134	0x80	0.0
135	0x80	0.0
136	0x80	0.0
137	0x80	0.0
138	0x80	0.0
139	0x80	0.0
140	0x80	0.0
141	0x80	0.0
142	0x80	0.0
143	0x80	0.0
144	0x80	0.0
145	0x80	0.0
146	0x80	0.0
147	0x80	0.0
148	0x80	0.0
149	0x80	0.0
150	0x80	0.0
151	0x80	0.0
152	0x80	0.0
153	0x80	0.0
154	0x80	0.0
155	0x80	0.0
156	0x80	0.0
157	0x80	0.0
158	0x80	0.0
159	0x80	0.0
160	0x80	0.0
161	0x80	0.0
162	0x80	0.0
163	0x80	0.0
164	0x80	0.0
165	0x80	0.0
166	0x80	0.0
167	0x80	0.0
168	0x80	0.0
169	0x80	0.0
170	0x80	0.0
171	0x80	0.0
172	0x80	0.0
173	0x80	0.0
174	0x80	0.0
175	0x80	0.0
176	0x80	0.0
177	0x80	0.0
178	0x80	0.0
179	0x80	0.0
180	0x80	0.0
181	0x80	0.0
182	0x80	0.0
183	0x80	0.0
184	0x80	0.0
185	0x80	0.0
186	0x80	0.0
187	0x80	0.0
188	0x80	0.0
189	0x80	0.0
190	0x80	0.0
191	0x80	0.0
192	0x80	0.0
193	0x80	0.0
194	0x80	0.0
195	0x80	0.0
196	0x80	0.0
197	0x80	0.0
198	0x80	0.0
199	0x80	0.0
200	0x80	0.0
201	0x80	0.0
202	0x80	0.0
203	0x80	0.0
204	0x80	0.0
205	0x80	0.0
206	0x80	0.0
207	0x80	0.0
208	0x80	0.0
209	0x80	0.0
210	0x80	0.0
211	0x80	0.0
212	0x80	0.0
213	0x80	0.0
214	0x80	0.0
215	0x80	0.0
216	0x80	0.0
217	0x80	0.0
218	0x80	0.0
219	0x80	0.0
220	0x80	0.0
221	0x80	0.0
222	0x80	0.0
223	0x80	0.0
224	0x80	0.0
225	0x80	0.0
226	0x80	0.0
227	0x80	0.0
228	0x80	0.0
229	0x80	0.0
230	0x80	0.0
231	0x80	0.0
232	0x80	0.0
233	0x80	0.0
234	0x80	0.0
235	0x80	0.0
236	0x80	0.0
237	0x80	0.0
238	0x80	0.0
239	0x80	0.0
240	0x80	0.0
241	0x80	0.0
242	0x80	0.0
243	0x80	0.0
244	0x80	0.0
245	0x80	0.0
246	0x80	0.0
247	0x80	0.0
248	0x80	0.0
249	0x80	0.0
250	0x80	0.0
251	0x80	0.0
252	0x80	0.0
253	0x80	0.0
254	0x80	0.0
255	0x80	0.0

tfl.pseudo_qconst25 i1 [1, 16, 1, 64] scale=0.02757868 zero_point=-128
0	0x80	0.0
1	0x80	0.0
2	0x80	0.0
3	0x80	0.0
4	0x80	0.0
5	0x80	0.0
6	0x80	0.0
7	0x80	0.0
8	0x80	0.0
9	0x80	0.0
10	0x80	0.0
11	0x80	0.0
12	0x80	0.0
13	0x80	0.0
14	0x80	0.0
15	0x80	0.0
16	0x80	0.0
17	0x80	0.0
18	0x80	0.0
19	0x80	0.0
20	0x80	0.0
21	0x80	0.0
22	0x80	0.0
23	0x80	0.0
24	0x80	0.0
25	0x80	0.0
26	0x80	0.0
27	0x80	0.0
28	0x80	0.0
29	0x80	0.0
30	0x80	0.0
31	0x80	0.0
32	0x80	0.0
33	0x80	0.0
34	0x80	0.0
35	0x80	0.0
36	0x80	0.0
37	0x80	0.0
38	0x80	0.0
39	0x80	0.0
40	0x80	0.0
41	0x80	0.0
42	0x80	0.0
43	0x80	0.0
44	0x80	0.0
45	0x80	0.0
46	0x80	0.0
47	0x80	0.0
48	0x80	0.0
49	0x80	0.0
50	0x80	0.0
51	0x80	0.0
52	0x80	0.0
53	0x80	0.0
54	0x80	0.0
55	0x80	0.0
56	0x80	0.0
57	0x80	0.0
58	0x80	0.0
59	0x80	0.0
60	0x80	0.0
61	0x80	0.0
62	0x80	0.0
63	0x80	0.0
64	0x80	0.0
65	0x80	0.0
66	0x80	0.0
67	0x80	0.0
68	0x80	0.0
69	0x80	0.0
70	0x80	0.0
71	0x80	0.0
72	0x80	0.0
73	0x80	0.0
74	0x80	0.0
75	0x80	0.0
76	0x80	0.0
77	0x80	0.0
78	0x80	0.0
79	0x80	0.0
80	0x80	0.0
81	0x80	0.0
82	0x80	0.0
83	0x80	0.0
84	0x80	0.0
85	0x80	0.0
86	0x80	0.0
87	0x80	0.0
88	0x80	0.0
89	0x80	0.0
90	0x80	0.0
91	0x80	0.0
92	0x80	0.0
93	0x80	0.0
94	0x80	0.0
95	0x80	0.0
96	0x80	0.0
97	0x80	0.0
98	0x80	0.0
99	0x80	0.0
100	0x80	0.0
101	0x80	0.0
102	0x80	0.0
103	0x80	0.0
104	0x80	0.0
105	0x80	0.0
106	0x80	0.0
107	0x80	0.0
108	0x80	0.0
109	0x80	0.0
110	0x80	0.0
111	0x80	0.0
112	0x80	0.0
113	0x80	0.0
114	0x80	0.0
115	0x80	0.0
116	0x80	0.0
117	0x80	0.0
118	0x80	0.0
119	0x80	0.0
120	0x80	0.0
121	0x80	0.0
122	0x80	0.0
123	0x80	0.0
124	0x80	0.0
125	0x80	0.0
126	0x80	0.0
127	0x80	0.0
128	0x80	0.0
129	0x80	0.0
130	0x80	0.0
131	0x80	0.0
132	0x80	0.0
133	0x80	0.0
134	0x80	0.0
135	0x80	0.0
136	0x80	0.0
137	0x80	0.0
138	0x80	0.0
139	0x80	0.0
140	0x80	0.0
141	0x80	0.0
142	0x80	0.0
143	0x80	0.0
144	0x80	0.0
145	0x80	0.0
146	0x80	0.0
147	0x80	0.0
148	0x80	0.0
149	0x80	0.0
150	0x80	0.0
151	0x80	0.0
152	0x80	0.0
153	0x80	0.0
154	0x80	0.0
155	0x80	0.0
156	0x80	0.0
157	0x80	0.0
158	0x80	0.0
159	0x80	0.0
160	0x80	0.0
161	0x80	0.0
162	0x80	0.0
163	0x80	0.0
164	0x80	0.0
165	0x80	0.0
166	0x80	0.0
167	0x80	0.0
168	0x80	0.0
169	0x80	0.0
170	0x80	0.0
171	0x80	0.0
172	0x80	0.0
173	0x80	0.0
174	0x80	0.0
175	0x80	0.0
176	0x80	0.0
177	0x80	0.0
178	0x80	0.0
179	0x80	0.0
180	0x80	0.0
181	0x80	0.0
182	0x80	0.0
183	0x80	0.0
184	0x80	0.0
185	0x80	0.0
186	0x80	0.0
187	0x80	0.0
188	0x80	0.0
189	0x80	0.0
190	0x80	0.0
191	0x80	0.0
192	0x80	0.0
193	0x80	0.0
194	0x80	0.0
195	0x80	0.0
196	0x80	0.0
197	0x80	0.0
198	0x80	0.0
199	0x80	0.0
200	0x80	0.0
201	0x80	0.0
202	0x80	0.0
203	0x80	0.0
204	0x80	0.0
205	0x80	0.0
206	0x80	0.0
207	0x80	0.0
208	0x80	0.0
209	0x80	0.0
210	0x80	0.0
211	0x80	0.0
212	0x80	0.0
213	0x80	0.0
214	0x80	0.0
215	0x80	0.0
216	0x80	0.0
217	0x80	0.0
218	0x80	0.0
219	0x80	0.0
220	0x80	0.0
221	0x80	0.0
222	0x80	0.0
223	0x80	0.0
224	0x80	0.0
225	0x80	0.0
226	0x80	0.0
227	0x80	0.0
228	0x80	0.0
229	0x80	0.0
230	0x80	0.0
231	0x80	0.0
232	0x80	0.0
233	0x80	0.0
234	0x80	0.0
235	0x80	0.0
236	0x80	0.0
237	0x80	0.0
238	0x80	0.0
239	0x80	0.0
240	0x80	0.0
241	0x80	0.0
242	0x80	0.0
243	0x80	0.0
244	0x80	0.0
245	0x80	0.0
246	0x80	0.0
247	0x80	0.0
248	0x80	0.0
249	0x80	0.0
250	0x80	0.0
251	0x80	0.0
252	0x80	0.0
253	0x80	0.0
254	0x80	0.0
255	0x80	0.0

tfl.pseudo_qconst26 i1 [1, 2, 1, 40] scale=0.101960786 zero_point=-128
0	0x80	0.0
1	0x80	0.0
2	0x80	0.0
3	0x80	0.0
4	0x80	0.0
5	0x80	0.0
6	0x80	0.0
7	0x80	0.0
8	0x80	0.0
9	0x80	0.0
10	0x80	0.0
11	0x80	0.0
12	0x80	0.0
13	0x80	0.0
14	0x80	0.0
15	0x80	0.0
16	0x80	0.0
17	0x80	0.0
18	0x80	0.0
19	0x80	0.0
20	0x80	0.0
21	0x80	0.0
22	0x80	0.0
23	0x80	0.0
24	0x80	0.0
25	0x80	0.0
26	0x80	0.0
27	0x80	0.0
28	0x80	0.0
29	0x80	0.0
30	0x80	0.0
31	0x80	0.0
32	0x80	0.0
33	0x80	0.0
34	0x80	0.0
35	0x80	0.0
36	0x80	0.0
37	0x80	0.0
38	0x80	0.0
39	0x80	0.0
40	0x80	0.0
41	0x80	0.0
42	0x80	0.0
43	0x80	0.0
44	0x80	0.0
45	0x80	0.0
46	0x80	0.0
47	0x80	0.0
48	0x80	0.0
49	0x80	0.0
50	0x80	0.0
51	0x80	0.0
52	0x80	0.0
53	0x80	0.0
54	0x80	0.0
55	0x80	0.0
56	0x80	0.0
57	0x80	0.0
58	0x80	0.0
59	0x80	0.0
60	0x80	0.0
61	0x80	0.0
62	0x80	0.0
63	0x80	0.0
64	0x80	0.0
65	0x80	0.0
66	0x80	0.0
67	0x80	0.0
68	0x80	0.0
69	0x80	0.0
70	0x80	0.0
71	0x80	0.0
72	0x80	0.0
73	0x80	0.0
74	0x80	0.0
75	0x80	0.0
76	0x80	0.0
77	0x80	0.0
78	0x80	0.0
79	0x80	0.0

tfl.pseudo_qconst27 i1 [1, 4, 1, 32] scale=0.6038918 zero_point=-128
0	0x80	0.0
1	0x80	0.0
2	0x80	0.0
3	0x80	0.0
4	0x80	0.0
5	0x80	0.0
6	0x80	0.0
7	0x80	0.0
8	0x80	0.0
9	0x80	0.0
10	0x80	0.0
11	0x80	0.0
12	0x80	0.0
13	0x80	0.0
14	0x80	0.0
15	0x80	0.0
16	0x80	0.0
17	0x80	0.0
18	0x80	0.0
19	0x80	0.0
20	0x80	0.0
21	0x80	0.0
22	0x80	0.0
23	0x80	0.0
24	0x80	0.0
25	0x80	0.0
26	0x80	0.0
27	0x80	0.0
28	0x80	0.0
29	0x80	0.0
30	0x80	0.0
31	0x80	0.0
32	0x80	0.0
33	0x80	0.0
34	0x80	0.0
35	0x80	0.0
36	0x80	0.0
37	0x80	0.0
38	0x80	0.0
39	0x80	0.0
40	0x80	0.0
41	0x80	0.0
42	0x80	0.0
43	0x80	0.0
44	0x80	0.0
45	0x80	0.0
46	0x80	0.0
47	0x80	0.0
48	0x80	0.0
49	0x80	0.0
50	0x80	0.0
51	0x80	0.0
52	0x80	0.0
53	0x80	0.0
54	0x80	0.0
55	0x80	0.0
56	0x80	0.0
57	0x80	0.0
58	0x80	0.0
59	0x80	0.0
60	0x80	0.0
61	0x80	0.0
62	0x80	0.0
63	0x80	0.0
64	0x80	0.0
65	0x80	0.0
66	0x80	0.0
67	0x80	0.0
68	0x80	0.0
69	0x80	0.0
70	0x80	0.0
71	0x80	0.0
72	0x80	0.0
73	0x80	0.0
74	0x80	0.0
75	0x80	0.0
76	0x80	0.0
77	0x80	0.0
78	0x80	0.0
79	0x80	0.0
80	0x80	0.0
81	0x80	0.0
82	0x80	0.0
83	0x80	0.0
84	0x80	0.0
85	0x80	0.0
86	0x80	0.0
87	0x80	0.0
88	0x80	0.0
89	0x80	0.0
90	0x80	0.0
91	0x80	0.0
92	0x80	0.0
93	0x80	0.0
94	0x80	0.0
95	0x80	0.0
96	0x80	0.0
97	0x80	0.0
98	0x80	0.0
99	0x80	0.0
100	0x80	0.0
101	0x80	0.0
102	0x80	0.0
103	0x80	0.0
104	0x80	0.0
105	0x80	0.0
106	0x80	0.0
107	0x80	0.0
108	0x80	0.0
109	0x80	0.0
110	0x80	0.0
111	0x80	0.0
112	0x80	0.0
113	0x80	0.0
114	0x80	0.0
115	0x80	0.0
116	0x80	0.0
117	0x80	0.0
118	0x80	0.0
119	0x80	0.0
120	0x80	0.0
121	0x80	0.0
122	0x80	0.0
123	0x80	0.0
124	0x80	0.0
125	0x80	0.0
126	0x80	0.0
127	0x80	0.0

tfl.pseudo_qconst28 i1 [1, 10, 1, 64] scale=0.033576712 zero_point=-128
0	0x80	0.0
1	0x80	0.0
2	0x80	0.0
3	0x80	0.0
4	0x80	0.0
5	0x80	0.0
6	0x80	0.0
7	0x80	0.0
8	0x80	0.0
9	0x80	0.0
10	0x80	0.0
11	0x80	0.0
12	0x80	0.0
13	0x80	0.0
14	0x80	0.0
15	0x80	0.0
16	0x80	0.0
17	0x80	0.0
18	0x80	0.0
19	0x80	0.0
20	0x80	0.0
21	0x80	0.0
22	0x80	0.0
23	0x80	0.0
24	0x80	0.0
25	0x80	0.0
26	0x80	0.0
27	0x80	0.0
28	0x80	0.0
29	0x80	0.0
30	0x80	0.0
31	0x80	0.0
32	0x80	0.0
33	0x80	0.0
34	0x80	0.0
35	0x80	0.0
36	0x80	0.0
37	0x80	0.0
38	0x80	0.0
39	0x80	0.0
40	0x80	0.0
41	0x80	0.0
42	0x80	0.0
43	0x80	0.0
44	0x80	0.0
45	0x80	0.0
46	0x80	0.0
47	0x80	0.0
48	0x80	0.0
49	0x80	0.0
50	0x80	0.0
51	0x80	0.0
52	0x80	0.0
53	0x80	0.0
54	0x80	0.0
55	0x80	0.0
56	0x80	0.0
57	0x80	0.0
58	0x80	0.0
59	0x80	0.0
60	0x80	0.0
61	0x80	0.0
62	0x80	0.0
63	0x80	0.0
64	0x80	0.0
65	0x80	0.0
66	0x80	0.0
67	0x80	0.0
68	0x80	0.0
69	0x80	0.0
70	0x80	0.0
71	0x80	0.0
72	0x80	0.0
73	0x80	0.0
74	0x80	0.0
75	0x80	0.0
76	0x80	0.0
77	0x80	0.0
78	0x80	0.0
79	0x80	0.0
80	0x80	0.0
81	0x80	0.0
82	0x80	0.0
83	0x80	0.0
84	0x80	0.0
85	0x80	0.0
86	0x80	0.0
87	0x80	0.0
88	0x80	0.0
89	0x80	0.0
90	0x80	0.0
91	0x80	0.0
92	0x80	0.0
93	0x80	0.0
94	0x80	0.0
95	0x80	0.0
96	0x80	0.0
97	0x80	0.0
98	0x80	0.0
99	0x80	0.0
100	0x80	0.0
101	0x80	0.0
102	0x80	0.0
103	0x80	0.0
104	0x80	0.0
105	0x80	0.0
106	0x80	0.0
107	0x80	0.0
108	0x80	0.0
109	0x80	0.0
110	0x80	0.0
111	0x80	0.0
112	0x80	0.0
113	0x80	0.0
114	0x80	0.0
115	0x80	0.0
116	0x80	0.0
117	0x80	0.0
118	0x80	0.0
119	0x80	0.0
120	0x80	0.0
121	0x80	0.0
122	0x80	0.0
123	0x80	0.0
124	0x80	0.0
125	0x80	0.0
126	0x80	0.0
127	0x80	0.0
128	0x80	0.0
129	0x80	0.0
130	0x80	0.0
131	0x80	0.0
132	0x80	0.0
133	0x80	0.0
134	0x80	0.0
135	0x80	0.0
136	0x80	0.0
137	0x80	0.0
138	0x80	0.0
139	0x80	0.0
140	0x80	0.0
141	0x80	0.0
142	0x80	0.0
143	0x80	0.0
144	0x80	0.0
145	0x80	0.0
146	0x80	0.0
147	0x80	0.0
148	0x80	0.0
149	0x80	0.0
150	0x80	0.0
151	0x80	0.0
152	0x80	0.0
153	0x80	0.0
154	0x80	0.0
155	0x80	0.0
156	0x80	0.0
157	0x80	0.0
158	0x80	0.0
159	0x80	0.0
160	0x80	0.0
161	0x80	0.0
162	0x80	0.0
163	0x80	0.0
164	0x80	0.0
165	0x80	0.0
166	0x80	0.0
167	0x80	0.0
168	0x80	0.0
169	0x80	0.0
170	0x80	0.0
171	0x80	0.0
172	0x80	0.0
173	0x80	0.0
174	0x80	0.0
175	0x80	0.0
176	0x80	0.0
177	0x80	0.0
178	0x80	0.0
179	0x80	0.0
180	0x80	0.0
181	0x80	0.0
182	0x80	0.0
183	0x80	0.0
184	0x80	0.0
185	0x80	0.0
186	0x80	0.0
187	0x80	0.0
188	0x80	0.0
189	0x80	0.0
190	0x80	0.0
191	0x80	0.0
192	0x80	0.0
193	0x80	0.0
194	0x80	0.0
195	0x80	0.0
196	0x80	0.0
197	0x80	0.0
198	0x80	0.0
199	0x80	0.0
200	0x80	0.0
201	0x80	0.0
202	0x80	0.0
203	0x80	0.0
204	0x80	0.0
205	0x80	0.0
206	0x80	0.0
207	0x80	0.0
208	0x80	0.0
209	0x80	0.0
210	0x80	0.0
211	0x80	0.0
212	0x80	0.0
213	0x80	0.0
214	0x80	0.0
215	0x80	0.0
216	0x80	0.0
217	0x80	0.0
218	0x80	0.0
219	0x80	0.0
220	0x80	0.0
221	0x80	0.0
222	0x80	0.0
223	0x80	0.0
224	0x80	0.0
225	0x80	0.0
226	0x80	0.0
227	0x80	0.0
228	0x80	0.0
229	0x80	0.0
230	0x80	0.0
231	0x80	0.0
232	0x80	0.0
233	0x80	0.0
234	0x80	0.0
235	0x80	0.0
236	0x80	0.0
237	0x80	0.0
238	0x80	0.0
239	0x80	0.0
240	0x80	0.0
241	0x80	0.0
242	0x80	0.0
243	0x80	0.0
244	0x80	0.0
245	0x80	0.0
246	0x80	0.0
247	0x80	0.0
248	0x80	0.0
249	0x80	0.0
250	0x80	0.0
251	0x80	0.0
252	0x80	0.0
253	0x80	0.0
254	0x80	0.0
255	0x80	0.0
